hand_write/model/hand_write_model.pth (torch, 409240 bytes, 4 tensors)

fc1.weight f4 [128, 784]
0.034487963 0.048639465 0.027021905 0.05410106 0.0402193 0.050416242 0.031259302 0.027017212
0.061613373 0.0915143 0.039709378 0.06983402 0.03849165 0.049692567 0.09411902 0.08365702
0.06688087 0.055725876 0.058115374 0.06334213 0.07502699 0.083728984 0.08905742 0.07318993
0.054620594 0.03140865 0.088171 0.060631037 0.09557262 0.03905292 0.0559612 0.031429734
0.0911555 0.08249423 0.028732693 0.043622386 0.081517145 0.038409248 0.047002926 0.081724726
0.069806576 0.02529964 0.0713726 0.048539165 0.0458678 0.025012365 0.07091531 0.050806496
0.055625048 0.06924718 0.047120273 0.09057819 0.07158159 0.09533917 0.040514603 0.045543756
0.046501912 0.095257364 0.033181224 0.027782781 0.046586845 0.07334729 0.07913118 0.030453015
0.054878272 0.07726157 0.06429589 0.044313874 0.041343156 0.05034485 0.052455276 0.03455973
0.09507134 0.064897805 0.041466076 0.07187982 0.08076872 0.07774553 0.04474702 0.06754208
0.025342526 0.024945611 0.08983929 0.039131887 0.027690267 0.08056349 0.04923402 0.047817178
0.09001349 0.0722059 0.09427842 0.091150954 0.030962622 0.043683376 0.08742026 0.07066689
0.074646614 0.08107149 0.07641423 0.06839081 0.06444302 0.028634585 -0.072849624 0.047937103
0.027398372 0.05306226 0.042170994 0.0414546 0.043592684 0.092397355 0.06194723 0.02533797
0.06184787 0.067221895 0.085648425 0.08007756 0.09165669 0.062954605 0.085182525 0.06329044
0.09011467 0.02792971 0.035219174 0.0799838 0.02587504 0.029558698 0.03613597 0.06909413
0.05961864 0.030744823 0.026970673 0.06664795 0.046449464 0.055367686 0.0857897 0.09502638
0.02435821 0.081448056 0.08138572 0.095308244 0.08490252 0.08255284 0.064434014 0.05522679
0.07085738 0.093055695 0.08941264 0.04271812 0.04271762 0.073143706 0.04235263 0.02471989
0.045143887 0.038791772 0.042229936 0.09368227 -0.08968787 0.048763562 0.09363846 0.032528773
0.026032656 0.05453472 0.0637758 0.086072564 0.053786866 0.043506444 0.046830386 0.07571864
0.027682511 0.039721176 0.071743585 0.049054127 0.035904784 0.029333653 0.07204785 0.06862138
-0.08811844 -0.080646545 -0.028305136 0.030840456 0.030879244 0.027643323 0.057376552 0.06852247
0.053616814 0.064268515 0.08804532 0.061151925 0.03873464 -0.08110726 -0.074375354 -0.053281955
-0.037235953 0.046478808 0.092534475 0.024919212 0.08458824 0.07395431 0.036456943 0.02477482
0.079339094 0.041683465 0.04765896 0.06477783 0.07868911 -0.033911128 -0.08517268 0.08657939
0.037177622 0.024353068 0.05127528 0.059253253 0.0633648 0.08680746 0.032116804 0.090931825
0.029918168 -0.08434611 -0.08169163 -0.08208284 -0.032933522 0.026862532 0.05334503 0.056147903
0.07341847 0.033943444 0.077832244 0.075712144 0.058670174 0.057288833 0.092688456 0.0805686
0.09559633 -0.08276085 0.028810749 0.044012703 0.04715895 0.057946984 0.09112439 0.08546474
0.07443902 0.039531942 0.030800184 0.055046823 -0.074704625 -0.026760224 -0.068568796 -0.06940453
-0.042524546 0.04266514 0.026692295 0.03728752 0.08200104 0.06806914 0.07398545 0.063246556
00000000: 4043 0d3d 2d3a 473d 0b5d dd3c 1399 5d3d
00000010: febc 243d 4381 4e3d c109 003d 3353 dd3c
00000020: 4e5e 7c3d d96b bb3d 4da6 223d 2405 8f3d
00000030: 6ca9 1d3d 6f8a 4b3d 79c1 c03d 5f54 ab3d
00000040: d6f8 883d d140 643d 630a 6e3d 85b9 813d
00000050: c0a7 993d 1a7a ab3d bd63 b63d 9ae4 953d
00000060: d8b9 5f3d 5ba6 003d ff92 b43d 4058 783d
00000070: 94bb c33d f4f5 1f3d 9237 653d 77bc 003d
00000080: bcaf ba3d bcf2 a83d d360 eb3c 63ad 323d
00000090: 76f2 a63d 0453 1d3d 2486 403d 4b5f a73d
000000a0: c0f6 8e3d 3141 cf3c cc2b 923d 01d1 463d
000000b0: e0df 3b3d bbe6 cc3c 0c3c 913d 791a 503d
000000c0: 17d7 633d 77d1 8d3d 3001 413d 0f81 b93d
000000d0: 5e99 923d 2f41 c33d a4f2 253d 178c 3a3d
000000e0: ca78 3e3d 4b16 c33d 09e9 073d b798 e33c
000000f0: d9d1 3e3d 1b37 963d 870f a23d 9a78 f93c
00000100: 0ac8 603d 503b 9e3d 90ad 833d 7782 353d
00000110: 7157 293d 6736 4e3d 58db 563d 818e 0d3d
00000120: c3b4 c23d 24e9 843d 55d8 293d ba35 933d
00000130: 126a a53d 0c39 9f3d a748 373d 8153 8a3d
00000140: 219b cf3c bd5a cc3c a9fd b73d c248 203d
00000150: b3d6 e23c 79fe a43d 9da9 493d f2db 433d
00000160: fe58 b83d b0e0 933d 0b15 c13d 5aad ba3d
00000170: 53a5 fd3c 57ed 323d 6509 b33d cdb9 903d
00000180: 53e0 983d cf08 a63d 107f 9c3d 7b10 8c3d
00000190: b4fa 833d 1493 ea3c 2f32 95bd b259 443d
000001a0: 8d72 e03c d057 593d 7ebb 2c3d 4ccc 293d
000001b0: 3e8e 323d d33a bd3d 61bc 7d3d 9391 cf3c
000001c0: 3154 7d3d a2ab 893d 7168 af3d b4ff a33d
000001d0: 81b6 bb3d 58ee 803d 2d74 ae3d 6b9e 813d
000001e0: 0a8e b83d d9cc e43c fb41 103d 8cce a33d
000001f0: e4f7 d33c 1525 f23c 5003 143d 3981 8d3d
00000200: ad32 743d 91dc fb3c 9af1 dc3c b87e 883d
00000210: cb41 3e3d 3ac9 623d 83b2 af3d 319d c23d
00000220: de8a c73c 3dce a63d 8ead a63d f830 c33d
00000230: 5fe1 ad3d 7711 a93d fbf5 833d 7d35 623d
00000240: ad1d 913d fc93 be3d f91d b73d 32f9 2e3d
00000250: acf8 2e3d 5ecc 953d f479 2d3d 5e81 ca3c
00000260: cce8 383d 1fe4 1e3d 4cf9 2c3d 7ddc bf3d
00000270: 46ae b7bd 4dbc 473d 85c5 bf3d e43c 053d
00000280: 7042 d53c cc5f 5f3d e39c 823d d046 b03d
00000290: 9e4f 5c3d d033 323d 38d1 3f3d 6012 9b3d
000002a0: 6fc6 e23c acb2 223d 4dee 923d fbec 483d
000002b0: e510 133d 214d f03c d38d 933d 5e89 8c3d
000002c0: 7177 b4bd 042a a5bd 2ce0 e7bc 20a5 fc3c
000002d0: 78f6 fc3c 4074 e23c ad03 6b3d 8255 8c3d
000002e0: 4e9d 5b3d 369f 833d 1b51 b43d 717a 7a3d
000002f0: 37a8 1e3d 901b a6bd 1b52 98bd 2e3e 5abd
00000300: ba84 18bd 9060 3e3d b782 bd3d 6023 cc3c
00000310: 993c ad3d 5b75 973d e053 153d 90f4 ca3c
00000320: 897c a23d 48bc 2a3d 0b36 433d 3daa 843d
00000330: c227 a13d 65e6 0abd 046f aebd 8950 b13d
00000340: 9047 183d 1680 c73c 0706 523d 8ab3 723d
00000350: 67c5 813d 1cc8 b13d e98c 033d 773a ba3d
00000360: f216 f53c a7bd acbd f14d a7bd 0c1b a8bd
00000370: 4de5 06bd d00e dc3c 5180 5a3d 58fb 653d
00000380: 6c5c 963d 4808 0b3d 8366 9f3d f80e 9b3d
00000390: 2350 703d b2a7 6a3d 72d3 bd3d 2601 a53d
000003a0: 02c8 c33d 857e a9bd 8504 ec3c aa46 343d
000003b0: be29 413d d159 6d3d 6d9f ba3d 2308 af3d
000003c0: 7c73 983d 3fec 213d ab50 fc3c c778 613d
000003d0: bdfe 98bd 4238 dbbc cc6d 8cbd f623 8ebd
000003e0: 382e 2ebd a4c1 2e3d cda9 da3c ccba 183d
000003f0: 29f0 a73d d567 8b3d af85 973d 6987 813d

fc1.bias f4 [128]
-0.02698472 -0.07646193 -0.073086835 -0.08352571 -0.065906845 -0.029693719 -0.06225627 -0.025303496
0.09905132 -0.05626301 -0.04535697 -0.0042974697 -0.035618354 -0.06853442 -0.052115325 -0.049965978
-0.08103624 -0.049390726 -0.04469679 -0.073948935 -0.026094295 -0.05729392 -0.03405946 -0.07111136
-0.06374221 -0.09436715 -0.034802884 -0.070589915 -0.037121266 -0.036044892 -0.15135239 -0.05305753
0.005066647 -0.085552044 -0.034059864 -0.05524367 -0.04888936 -0.024270788 -0.034825433 -0.06728564
-0.022065697 -0.035913102 -0.09548061 -0.05100054 -0.017651517 -0.04855259 -0.096548855 -0.037810396
-0.020637542 -0.068348326 -0.053464763 -0.037663605 -0.05244211 -0.05900262 -0.06068257 -0.07783466
-0.02955135 -0.033531576 -0.092216335 -0.040908698 -0.082161576 -0.06817746 -0.18609084 -0.008245434
-0.001616083 -0.07930337 -0.070983246 -0.12831503 -0.058754433 -0.06953205 -0.08829532 -0.026897132
-0.011122464 -0.077281184 -0.062211882 -0.07918492 -0.056854077 -0.03928601 -0.054832015 -0.055033278
-0.08329309 -0.05139205 -0.026134055 -0.031102972 -0.052317496 -0.07328936 -0.013498349 -0.027862852
-0.047726322 -0.03574585 -0.068847165 -0.040356506 -0.04048701 -0.089728326 -0.03295841 -0.032907028
-0.048914086 -0.07532048 -0.026353905 -0.05396061 -0.030867452 -0.09105608 -0.0722953 -0.052643996
-0.07310126 -0.07884885 -0.05485002 -0.0659612 -0.0707263 -0.04040763 -0.056787066 -0.059818786
-0.033728864 -0.029580727 -0.026446925 -0.059210315 -0.05547449 -0.036824528 -0.06760286 -0.042573273
-0.06274902 -0.12394664 -0.09909428 -0.06799603 -0.09392785 -0.07623619 -0.039108526 -0.07992763
00000000: 0f0f ddbc 1398 9cbd 8dae 95bd 870f abbd
00000010: 2bfa 86bd 3e40 f3bc 6e00 7fbd 4749 cfbc
00000020: 6bdb ca3d 0b74 66bd 3bc8 39bd cad1 8cbb
00000030: 8de4 11bd c65b 8cbd e176 55bd 20a9 4cbd
00000040: 54f6 a5bd ee4d 4abd fb13 37bd 8a72 97bd
00000050: b4c3 d5bc 08ad 6abd ef81 0bbd d5a2 91bd
00000060: 478b 82bd 9043 c1bd 788d 0ebd 7291 90bd
00000070: 780c 18bd cfa3 13bd 1ffc 1abe da52 59bd
00000080: 1e06 a63b e935 afbd 5b82 0bbd 3047 62bd
00000090: 3640 48bd 88d3 c6bc 1da5 0ebd 0ecd 89bd
000000a0: 1fc3 b4bc 9e19 13bd 578b c3bd f1e5 50bd
000000b0: ea99 90bc 15df 46bd 68bb c5bd 13df 1abd
000000c0: 1010 a9bc 35fa 8bbd defd 5abd 2745 1abd
000000d0: 8acd 56bd bbac 71bd 498e 78bd c767 9fbd
000000e0: ac15 f2bc 6858 09bd ebdb bcbd e18f 27bd
000000f0: 5444 a8bd a0a0 8bbd 998e 3ebe db17 07bc
00000100: bfd2 d3ba ce69 a2bd aa5f 91bd 0465 03be
00000110: 7da8 70bd d266 8ebd 2dd4 b4bd 6057 dcbc
00000120: ff3a 36bc 9945 9ebd e3d1 7ebd b42b a2bd
00000130: d2df 68bd 5eea 20bd 8997 60bd 936a 61bd
00000140: 9195 aabd 7880 52bd 1617 d6bc a9cb febc
00000150: df4a 56bd bb18 96bd 2e28 5dbc a340 e4bc
00000160: ad7c 43bd 3e6a 12bd beff 8cbd dd4c 25bd
00000170: b5d5 25bd 7cc3 b7bd 66ff 06bd 85c9 06bd
00000180: 235a 48bd a041 9abd 25e4 d7bc cd05 5dbd
00000190: bddd fcbc 9c7b babd 8f0f 94bd 3ba1 57bd
000001a0: 1db6 95bd 827b a1bd 6aaa 60bd aa16 87bd
000001b0: f3d8 90bd 7982 25bd 8e99 68bd 8b04 75bd
000001c0: 4727 0abd 4853 f2bc 39a7 d8bc 8486 72bd
000001d0: 3839 63bd 51d5 16bd 5e73 8abd 5061 2ebd
000001e0: 8f82 80bd bcd7 fdbd f1f1 cabd 8141 8bbd
000001f0: 3f5d c0bd b821 9cbd 4330 20bd 19b1 a3bd

fc2.weight f4 [10, 128]
-0.025935723 -0.01914755 -0.3883061 -0.019547222 0.1733642 -0.050486818 0.009248251 0.13089298
0.102937244 -0.04651813 -0.07403013 -0.064997725 0.024529109 0.07743761 -0.0053506056 -0.01675911
0.08287197 0.085903995 -0.070161685 -0.06487788 0.024791822 0.100169666 -0.14574525 -0.00419022
-0.10515984 0.04222374 -0.026873298 -0.13983433 0.117907465 -0.009450641 -0.05263514 -0.117456354
-0.08107003 0.04046525 0.14233264 -0.119614065 0.10171467 0.10973048 0.041647267 0.09113453
0.084651716 0.078310475 -0.010765797 -0.045730844 -0.10509596 -0.00031463054 0.032363318 -0.0024900658
0.13274339 0.010417298 0.12273481 -0.049056333 -0.036522157 0.21789595 -0.03566131 -0.14114256
0.10943633 0.04163923 -0.011132561 -0.28376013 -0.11899705 -0.027130876 -0.3523322 0.14526504
0.13347933 0.070747726 0.009443783 -0.3920531 -0.07831142 0.121100396 -0.021327535 0.016790953
0.080244 0.017451698 0.029854182 -0.019751448 -0.02013429 0.08845175 -0.09040271 -0.10161771
-0.06414562 -0.019592836 0.025942065 -0.03670235 -0.039933708 0.009703569 0.1354931 -0.023068205
0.16454807 0.10353141 -0.02594576 0.093468904 0.15615112 -0.045242976 -0.012042304 -0.08585708
0.02176666 0.014099836 -0.08731712 -0.11941254 -0.026811572 0.101626225 0.006308227 0.024883145
0.052841704 0.044729434 -0.014168508 -0.018480355 0.12426772 -0.0036416955 0.11205955 -0.057584245
0.088330515 0.009249009 0.0060202186 0.1463658 -0.030103466 0.046551473 -0.12599683 0.054217298
-0.07153209 -0.122583434 -0.11080579 0.03576212 -0.030059671 0.14372815 -0.07354092 -0.044098374
-0.02989647 0.13716796 -0.20077924 -0.050829053 -0.21558104 -0.09514867 0.093432106 0.14066175
-0.14272389 0.0028061091 -0.027509373 -0.06803421 0.048474025 0.036300898 0.073810406 -0.114978395
0.0062312884 0.05492154 -0.02824669 -0.0010101943 -0.09006185 0.02521377 -0.078321345 -0.10040943
0.01205461 -0.05243762 -0.051908545 -0.11188605 0.12369883 -0.087842725 -0.06259247 -0.11542559
0.057868145 -0.013753342 -0.006345567 -0.09425617 0.08111549 0.12045933 0.09622465 -0.12535629
0.14066918 0.022210946 -0.18881859 -0.09384927 0.012340849 0.07714492 0.012597277 0.00058816996
0.011772217 -0.073458806 0.13136487 -0.07591989 -0.0049579656 -0.2764517 0.09237188 -0.104122
-0.002839535 0.015672017 0.0068825297 0.18553866 -0.09357617 -0.11872239 0.19780575 0.11332488
0.02466098 0.08372819 0.01551372 0.2501914 0.020920325 0.078404635 -0.041417204 0.07009557
-0.0160789 0.050363936 0.105935134 0.07453079 -0.031521507 0.110284224 -0.07362241 0.013241067
-0.027216349 0.12231563 0.08057628 -0.026079668 0.010485337 0.01271749 0.04921968 -0.0037415072
0.12121326 -0.031233834 0.035551697 0.12616348 0.08623507 -0.11705044 0.03033051 -0.064613864
0.04771909 -0.067472264 -0.0029574584 -0.08396116 -0.014606711 -0.14254597 -0.025254715 -0.0041261814
0.10100995 -0.09777085 -0.11432174 0.07474705 -0.010409871 0.09607486 -0.06404095 -0.12547398
-0.020808788 -0.034820285 -0.05286954 0.032428633 0.054293163 -0.067875184 -0.134151 -0.03633201
-0.016866269 0.2255371 0.2790254 0.05063687 0.06034378 -0.09518648 0.016743068 -0.12202142
00000000: 2777 d4bc 53db 9cbc 0fd0 c6be 7f21 a0bc
00000010: 6386 313e 44cb 4ebd fa85 173c cf08 063e
00000020: c3d0 d23d cb89 3ebd 1c9d 97bd 871d 85bd
00000030: 45f1 c83c 9c97 9e3d 2254 afbb 674a 89bc
00000040: c8b8 a93d 6fee af3d eeb0 8fbd b2de 84bd
00000050: 3818 cb3c c125 cd3d 3e3e 15be 1d4e 89bb
00000060: 0b5e d7bd cdf2 2c3d 6425 dcbc bb30 0fbe
00000070: 7879 f13d ddd6 1abc f297 57bd f58c f0bd
00000080: 0b08 a6bd e4be 253d a6bf 113e 38f8 f4bd
00000090: c84f d03d 60ba e03d 5396 2a3d bea4 ba3d
000000a0: e15d ad3d 3e61 a03d 0763 30bc 4450 3bbd
000000b0: 8d3c d7bd fff4 a4b9 668f 043d 5f30 23bb
000000c0: e2ed 073e 51ad 2a3c 635c fb3d 4bef 48bd
000000d0: 4298 15bd 1e20 5f3e 9811 12bd ad87 10be
000000e0: 2820 e03d e68d 2a3d 5865 36bc 0249 91be
000000f0: bab4 f3bd 9241 debc e364 b4be 5cc0 143e
00000100: ceae 083e 2fe4 903d 19ba 1a3c 2fbb c8be
00000110: bd61 a0bd 7c03 f83d 15b7 aebc 2e8d 893c
00000120: f756 a43d ddf6 8e3c c290 f43c cacd a1bc
00000130: abf0 a4bc 3126 b53d 0e25 b9bd f21c d0bd
00000140: c75e 83bd 2881 a0bc 7484 d43c 3455 16bd
00000150: 8791 23bd b8fb 1e3c b4be 0a3e 88f9 bcbc
00000160: 4a7f 283e 4708 d43d 348c d4bc a06c bf3d
00000170: 14e6 1f3e b350 39bd 154d 45bc d6d5 afbd
00000180: ff4f b23c 0003 673c 51d3 b2bd 908e f4bd
00000190: f1a3 dbbc 6921 d03d 3eb5 ce3b bdd7 cb3c
000001a0: 8b70 583d 3636 373d 0823 68bc 1d64 97bc
000001b0: 1380 fe3d 83a9 6ebb 7a7f e53d 75dd 6bbd
000001c0: a1e6 b43d 2889 173c 4145 c53b ebe0 153e
000001d0: 8b9b f6bc c2ac 3e3d 5005 01be f512 5e3d
000001e0: 6b7f 92bd 060d fbbd 25ee e2bd 4d7b 123d
000001f0: b33f f6bc 792d 133e 9f9c 96bd 7fa0 34bd
00000200: 71e9 f4bc c275 0c3e 1399 4dbe 2032 50bd
00000210: 47c1 5cbe 4edd c2bd 5559 bf3d a209 103e
00000220: 3626 12be b3e6 373b 565b e1bc 8555 8bbd
00000230: b38c 463d 40b0 143d e929 973d cb79 ebbd
00000240: d62f cc3b 69f5 603d 9a65 e7bc 7f68 84ba
00000250: 5972 b8bd 1c8d ce3c f166 a0bd 76a3 cdbd
00000260: b380 453c d4c8 56bd 0e9e 54bd 8324 e5bd
00000270: d055 fd3d e3e6 b3bd 7b30 80bd 4064 ecbd
00000280: 2607 6d3d b355 61bc 79ee cfbb 6109 c1bd
00000290: e11f a63d 62b3 f63d 6e11 c53d 665d 00be
000002a0: 950b 103e bbf3 b53c a959 41be 0c34 c0bd
000002b0: 4631 4a3c 28fe 9d3d cf64 4e3c 6b2f 1a3a
000002c0: 42e0 403c 9271 96bd 8384 063e e37b 9bbd
000002d0: 6e76 a2bb 148b 8dbe 782d bd3d ea3d d5bd
000002e0: 7e17 3abb 9a62 803c d886 e13b d9fd 3d3e
000002f0: dda4 bfbd b924 f3bd 978d 4a3e e016 e83d
00000300: d305 ca3c af79 ab3d 422d 7e3c 1619 803e
00000310: 1a61 ab3c 9c92 a03d 16a5 29bd 448e 8f3d
00000320: e6b7 83bc 6a4a 4e3d 85f4 d83d 99a3 983d
00000330: b21c 01bd b2dc e13d 59c7 96bd 0ff1 583c
00000340: d2f4 debc 9e80 fa3d 2d05 a53d 07a5 d5bc
00000350: b1ca 2b3c 055d 503c 939a 493d 1334 75bb
00000360: a83e f83d 19de ffbc a89e 113d 0031 013e
00000370: 039c b03d 24b8 efbd b177 f83c 4654 84bd
00000380: 1875 433d e62e 8abd ebd1 41bb d4f3 abbd
00000390: fd50 6fbc 92f7 11be fae2 cebc eb34 87bb
000003a0: 4ede ce3d 153c c8bd 8421 eabd fb14 993d
000003b0: 2a8e 2abc e5c2 c43d e727 83bd 407c 00be
000003c0: 3177 aabc b79f 0ebd bb8d 58bd e3d3 043d
000003d0: 8262 5e3d 2502 8bbd e15e 09be e0d0 14bd
000003e0: 212b 8abc 33f3 663e 6bdc 8e3e 9b68 4f3d
000003f0: 0a2b 773d 21f1 c2bd c228 893c 5ee6 f9bd

fc2.bias f4 [10]
0.42652702 -0.059401464 -0.61784947 0.46781904 0.91079885 -0.9234945 0.78155106 -1.7778243
1.1757545 -0.32687083
00000000: c061 da3e f34e 73bd 622b 1ebf fa85 ef3e
00000010: 1d2a 693f 236a 6cbf bb13 483f bf8f e3bf
00000020: 207f 963f 9d5b a7be
